synapse_srw_swa_final.pth (torch, 465881 bytes, 34 tensors)

module.stem.weight f4 [32, 8, 3]
000000 1d 9c 2b 3e b3 48 bf bd c8 d3 c3 3b 07 8e b9 bd
       0.16758771 -0.09340038 0.005976174 -0.09060293
000010 f1 95 ac 3d 66 04 8f bd 2d 5a de bd 8e 85 6c 3d
       0.084270366 -0.06983261 -0.108570434 0.057744555
000020 7d b8 e6 bd 75 1c 76 3d cd 8a 0a 3c 90 d8 68 3d
       -0.11265657 0.060085732 0.008455944 0.056847155
000030 a6 9e 8a bd 77 40 e7 bc 3d 86 cc 3d 41 fd 36 bd
       -0.06768541 -0.028228981 0.099865414 -0.044675115
000040 82 b0 db bc 42 a6 87 bd 7b 00 6d 3c 15 61 15 bd
       -0.026817564 -0.06623508 0.014465447 -0.036469538
000050 7a 42 73 bd d8 98 1a bd 98 2d c4 3d cd 64 24 3e
       -0.05938957 -0.03774342 0.09579009 0.16054077
000060 33 84 95 bc 65 43 3f 3d 36 52 98 bd b5 bd ac bd
       -0.018251514 0.04669513 -0.074375555 -0.08434621
000070 60 ec 3f 3d 82 9b dc bd f2 47 84 3d 36 d3 96 bc
       0.046856284 -0.10771848 0.06459035 -0.01841126
000080 61 3b d7 3d b4 e6 30 3d a9 1a df bd d8 7e 63 bd
       0.105093725 0.043188766 -0.10893757 -0.05554089
000090 7a e7 8d 3d 5f 6a 1b 3d a2 4b 99 3c 07 79 fa bd
       0.06928916 0.03794324 0.018712822 -0.122301154
0000a0 e6 6c 8e 3d 1e 06 99 3c 1a 28 80 3d 96 3b 50 bd
       0.069543645 0.018679675 0.06257649 -0.050838076
0000b0 28 2a b6 3a e7 4e 53 bb 15 95 50 bd 1d dd f3 3d
       0.0013898062 -0.0032243074 -0.050923426 0.119074084
0000c0 76 7c 4e bd 15 25 fc 3d 9b fa 8b bd 9f 79 7d 3d
       -0.050411664 0.1231176 -0.068349086 0.061883565
0000d0 79 c1 ba bd 4a b8 2e 3d 57 a6 10 bc d7 7d 80 bc
       -0.09118933 0.04265622 -0.008828721 -0.015685005
0000e0 f5 95 a0 bc 46 24 38 be f4 dc ce 3d fb 6e b0 bd
       -0.019602755 -0.17982587 0.10100737 -0.08614918
0000f0 bc 89 a9 ba cb b7 ce bc a5 83 6a 3d b3 07 a3 3d
       -0.0012934725 -0.025234124 0.057254452 0.07960453
000100 d3 c4 ad bc 6c 89 04 bb e9 d6 89 bd 19 04 fe 3a
       -0.021212017 -0.0020223511 -0.06730444 0.0019379883
000110 1b 0c 39 3c 67 f9 1b 3e f2 44 ec bd 22 4e 77 3d
       0.01129439 0.15231858 -0.11536588 0.060377248
000120 30 88 03 3e 2d 06 9f 3c b5 c1 36 3d 0f fe 81 bd
       0.1284492 0.019412125 0.044618327 -0.06347286
000130 cd 9b 2d 3d bc d4 64 bd 10 d7 40 bc 9c ec e4 bc
       0.04238491 -0.05586694 -0.011770025 -0.027944855
000140 23 6a a8 bc b7 1b f9 3d 69 4f 3f bd f4 36 8d 3d
       -0.020558422 0.12163489 -0.04670659 0.06895247
000150 c4 c6 0a bd 11 07 d2 bc ad 37 81 3d 87 b0 e3 3d
       -0.033880964 -0.025638135 0.063094474 0.11117654
000160 c4 14 0a be 26 dd d6 3d 2e 58 5d bd 78 9a aa 3d
       -0.13484484 0.104913995 -0.054039173 0.08330244
000170 38 22 c9 bd 96 6a c1 bd 9f e5 85 bc 3e fe 9a bd
       -0.0982098 -0.09444158 -0.016344843 -0.07568024
000180 0e 24 67 3c 4d a6 97 3d ef 67 99 bd eb 18 81 bb
       0.014107717 0.07404766 -0.07490527 -0.003939738
000190 f7 34 9e bd 91 ff ed 3c 96 1f ec 3c 48 23 e8 bc
       -0.07724946 0.029052528 0.028823655 -0.028337136
0001a0 33 02 c0 3d 30 ac bd 3d 18 04 c7 bd fd 6c 1e 3d
       0.093754195 0.09261358 -0.09717578 0.038678158
0001b0 2c 8d 21 3d 5b 19 92 3d 7a 57 93 3d 8c 9c d8 bd
       0.039441273 0.071337424 0.07194419 -0.10576734
0001c0 0c 44 44 3d 58 d9 14 be 1d df 66 3c fc ef e2 bc
       0.047916457 -0.14536035 0.01409128 -0.027702324
0001d0 ca 91 37 3d bc 88 e7 3c 99 2f 01 bd 5d 8b e2 ba
       0.04481677 0.028263442 -0.031539533 -0.0017283965
0001e0 1a b1 8b 3d 38 7b 24 bc 45 42 93 bc 81 95 d4 bd
       0.06820889 -0.010039143 -0.017975936 -0.10380078
0001f0 00 6c 99 bc 5e ed b9 bd 93 c4 9e 3c ce ae b2 bd
       -0.018728256 -0.09078477 0.019380843 -0.087247476
000200 3f 97 33 bd ad 3c 86 bd 90 ae e8 3d 48 fe f5 3d
       -0.04384541 -0.06554542 0.1136142 0.12011391
000210 72 5b 9f 3d 46 78 a5 bd a8 af b2 3c b5 70 ae bd
       0.07781114 -0.08079581 0.021812275 -0.08517591
000220 d6 1a 81 3d 86 01 b2 3c d4 08 54 3d fc cc 85 3d
       0.06303947 0.021729242 0.05176623 0.06533238
000230 9f c4 90 bd 18 fa 8a 3c 7b a7 08 bd 64 fd c5 bc
       -0.070687525 0.016964957 -0.033362847 -0.024168678
000240 d0 8e a1 bd 00 13 b7 bd 27 12 af 3d 06 b3 d4 3d
       -0.078885674 -0.08939171 0.08548384 0.103857085
000250 08 76 eb 3c e2 c9 98 3d ce ce 20 bd 47 0a 95 bd
       0.028742805 0.07460381 -0.039259724 -0.07277351
000260 db 61 95 bd a9 0d 3c 3d ff 0b b4 3c 1b 2b 24 3d
       -0.07294055 0.045911465 0.021978376 0.04008017
000270 05 fc 91 bd 52 05 7c 3d a4 20 4a 3c d4 7b b9 bd
       -0.07128147 0.06152851 0.012336884 -0.090568215
000280 de 00 77 3d b2 b3 87 bd da 00 11 bc 0c 10 ca 3d
       0.06030356 -0.06626071 -0.008850301 0.09866342
000290 d9 76 6b bd f6 5a f5 3d f2 0b 87 bd 65 e0 f9 bc
       -0.05748639 0.1198024 -0.06594075 -0.030502507
0002a0 f1 95 78 3c 33 f4 19 bd ec a6 8a bd 68 63 f5 bd
       0.015172468 -0.037586402 -0.06770119 -0.11981851
0002b0 d4 02 b0 3d 45 8a 02 3d d5 f7 9d 3d 70 46 46 bd
       0.085942894 0.031870145 0.07713286 -0.04840702
0002c0 0e a5 eb bc ec 0c c6 bd 90 d7 06 3e 90 d6 81 bd
       -0.028765228 -0.096704334 0.13168168 -0.06339753
0002d0 c8 e6 36 3d dd aa 24 be 8e cd e1 3d 11 cb 07 3d
       0.044653684 -0.16080804 0.110255346 0.033152644
0002e0 69 40 a6 3d 30 b1 86 bd f0 8a 42 bc 71 97 8f bd
       0.08117754 -0.065767646 -0.011873946 -0.07011307
0002f0 24 59 39 3d b3 c1 d5 bb 8f 4b c3 3d 70 dd 88 3a
       0.045251027 -0.006523335 0.09535896 0.001044197
000300 bf 03 98 bd 0b c2 ff bb 2b ff 9c bd af f6 85 ba
       -0.074225895 -0.007805114 -0.07665857 -0.0010220612
000310 6b 22 82 bd 7b 94 12 3e 64 39 cc bb 54 38 de 3d
       -0.06354221 0.14314453 -0.0062324274 0.108505875
000320 6c 67 4c be dc bc f0 3c 48 c9 0e 3c 15 08 9b 3d
       -0.19961327 0.02938693 0.008714981 0.07569901
000330 f8 f0 7b 3d 11 69 76 bc 7d 5e a4 bb 00 89 cd bd
       0.061509103 -0.015039698 -0.0050161467 -0.10035896
000340 d0 c4 e4 3c ac fb 09 3b cf 18 6c 3d c5 05 8c 3c
       0.027925879 0.002105455 0.057640847 0.017092595
000350 a6 72 af bc fb b1 1f 3c c3 ec 54 bd f1 0c b3 3d
       -0.021416973 0.009747024 -0.051983606 0.08742703
000360 51 77 21 3d 26 ba 0d bd ba 79 aa 3b d2 c6 d2 3d
       0.03942043 -0.034601353 0.005202499 0.10291828
000370 fd ce 1a be 37 32 e3 3d 12 21 6e bd 63 88 83 3d
       -0.15118022 0.11093562 -0.058137007 0.06422498
000380 ca 19 11 be 7d 32 d9 3c b9 69 95 3c 0a 67 92 bc
       -0.14169994 0.026513333 0.018238889 -0.017871398
000390 d3 73 70 3d cd 8f f7 bc 48 04 ad 3d b7 db a6 bd
       0.05870421 -0.030219937 0.08448082 -0.08147376
0003a0 13 d2 e6 3c d6 18 50 bd a3 fb 5c bd 93 68 88 3c
       0.028176343 -0.050804935 -0.053950917 0.016651427
0003b0 78 18 23 3d 73 94 32 bd ec 3f 97 3d 76 c6 b2 bc
       0.039818257 -0.043598603 0.07385239 -0.02182315
0003c0 8d d5 58 bd 31 49 07 bc 13 13 1d bb 23 0c 93 3c
       -0.052938033 -0.008257196 -0.0023967668 0.017950123
0003d0 ca f7 ab 3d 86 6e b5 bc e3 8d 9e bb 9d f5 e4 3c
       0.083968714 -0.022147428 -0.0048386916 0.027949149
0003e0 79 17 74 3b 29 5e 0e bd 7f f7 78 3d 1e 62 57 3d
       0.0037245436 -0.034757767 0.060782906 0.052583806
0003f0 20 a6 4f 3d 68 d4 83 bd 3b 41 7b 3d 17 52 8f 3d
       0.05069554 -0.06436998 0.061341505 0.06998079

module.stem.bias f4 [32]
000000 d5 fd 33 3d 03 91 37 be 36 6b 99 bd b5 6e 96 3d
       0.043943245 -0.17926411 -0.07491152 0.073453344
000010 c7 7f 83 bb 6a 22 7b 3c 68 a1 8a 3d 0f d4 76 bc
       -0.004013035 0.015328029 0.06769067 -0.015065207
000020 20 4f 3d bd 68 a9 f7 3c b7 97 f4 bd fe 14 97 bd
       -0.046218038 0.030232146 -0.11943 -0.07377051
000030 86 f6 02 3e 4e a4 e0 3d ef 28 a7 bd 95 e2 e7 bd
       0.12789354 0.10968839 -0.08162104 -0.11322514
000040 93 3e 8a 3d fb da 48 be 06 80 0f bd fb f9 9c 3d
       0.06750216 -0.19614784 -0.035034202 0.076648675
000050 e6 67 ba 3d 3d ad 12 bd 4b 6a af 3d 7f 6a 48 3e
       0.09101848 -0.035809744 0.08565196 0.19571875
000060 56 0e a0 3d 1f ae 0b be e1 b3 cf 3d 87 fa d2 3d
       0.07815234 -0.1364064 0.10141731 0.103016905
000070 ce a7 c2 bd b6 59 d3 bd 8a 41 df 3d 34 bc 91 be
       -0.095046625 -0.103198454 0.109011725 -0.284639

module.layer1.convs.0.weight f4 [32, 32, 3]
000000 3c be 08 be d4 da 24 3b e9 7e 84 bc d6 69 f4 3c
       -0.13353819 0.0025154846 -0.016173797 0.029835623
000010 af 0b ed bc 1e dc f2 bc 20 2a 74 bc 23 00 b3 3d
       -0.028936235 -0.029645976 -0.0149026215 0.087402605
000020 e5 4f c6 bc bc eb 41 3d 49 fe 20 3d 04 2f fc 3d
       -0.024208019 0.047343954 0.039305005 0.12313655
000030 93 4c d8 bc ae 0f 3a be f4 b9 8f bd c4 2c b2 3c
       -0.026403701 -0.18170044 -0.070178896 0.021749862
000040 2c c2 82 3d fc df 34 3c 19 30 5c bd c0 e2 de bd
       0.063846916 0.01103973 -0.053756807 -0.10883093
000050 c2 02 a2 3d 8b 5f 54 bb 0a 92 18 3e 9a b9 45 bd
       0.07910682 -0.003240558 0.1489946 -0.048272707
000060 b7 83 a3 3d 2a 1a 3f bd 73 a4 37 3c 5a 60 80 3d
       0.07984107 -0.04665581 0.011208641 0.062683776
000070 b3 ea f1 bd 4c 0f 34 bd 18 22 df bd 12 6c 13 3d
       -0.118123434 -0.0439599 -0.10895175 0.035991736
000080 56 ad 12 bd ad 37 df 3d 33 65 42 3d b1 2e 82 bd
       -0.035809837 0.10899291 0.047459792 -0.06356562
000090 bb 37 49 3d 89 92 4e bd 1d b0 3b 3d 3b 39 f7 bd
       0.049125414 -0.050432716 0.04582225 -0.12071463
0000a0 da 8c d3 3d c7 58 3c bd ca 18 33 bc 8c eb 01 bc
       0.103296 -0.045983102 -0.010931203 -0.007929694
0000b0 23 88 8b bc f6 8c ce bb d9 f9 12 bd 6e 12 f1 3c
       -0.017032688 -0.006303425 -0.035882805 0.029427733
0000c0 ee e8 80 3c c9 61 62 3d b5 7f 39 3d ac ad 33 be
       0.01573607 0.055269036 0.045287807 -0.1754672
0000d0 ba a5 53 bc c4 67 90 3d b3 b4 d3 bc e3 79 d7 bd
       -0.01291793 0.07051042 -0.025843 -0.10521295
0000e0 42 ef 35 be 5f 75 19 bd cb c3 f7 bd e0 ac 7b bd
       -0.17767051 -0.03746545 -0.120978914 -0.061444163
0000f0 a0 cb 8b 3d e7 9d a5 bc d6 80 c5 bd c1 8a ab bd
       0.06825948 -0.020216895 -0.09643714 -0.083760746
000100 b7 87 ec bc 5a 20 84 3b ea 2a 25 bd c1 ec 63 3b
       -0.028873308 0.004032177 -0.04032413 0.0034778567
000110 34 d3 93 bd 14 fb c1 3c af c8 c7 bc 98 5f 4e 3d
       -0.07218018 0.023679294 -0.024387686 0.050384134
000120 b4 6d 08 bd 7c cd 5f bd c6 a8 9e bc c0 c1 a7 3b
       -0.033307746 -0.054639325 -0.019367587 0.0051195323
000130 60 4e 31 3b 6c 7e cf bc 37 31 8b bd b6 c0 3e 3d
       0.0027054772 -0.025328837 -0.06796496 0.046570502
000140 d5 31 e6 bd 81 4b 48 bd 07 da be bd 1d 14 aa 3c
       -0.112399735 -0.04890013 -0.09318929 0.020761544
000150 7b eb b3 3d 4f f9 21 bd 05 d2 e1 3d 6d 75 2e bd
       0.08785149 -0.0395444 0.11026386 -0.042592455
000160 58 57 5b bd b7 00 cd bc 96 0a 32 bc 6a 36 05 3e
       -0.053550094 -0.025024755 -0.010866782 0.13009039
000170 42 69 7e 3d 86 04 80 3c 26 2d f2 3d 9d 44 c2 bb
       0.0621121 0.015627157 0.11825018 -0.0059285895
000180 b4 27 86 bb c8 10 c4 3c ec 6b 37 bd 12 9f af 3c
       -0.0040940885 0.023933783 -0.044780657 0.021438155
000190 94 6d ee 3c 49 cd b5 bc f3 ab 9e 3d e8 07 eb 3c
       0.029104985 -0.022192614 0.077476405 0.028690293
0001a0 13 0c b3 3d fb 38 ab 3d 82 80 33 bc 9f e5 11 3e
       0.08742537 0.083604775 -0.010955932 0.1424775
0001b0 b7 15 12 3d eb 3e 16 bd 3e 2f 9b bd fa d6 64 3d
       0.03566524 -0.036681097 -0.0757737 0.05586908
0001c0 71 82 ae 3d 98 2a c1 3d 99 51 f3 3d ea 79 ac bc
       0.085209735 0.09431952 0.11880798 -0.021054227
0001d0 91 6c 9a bd ce 66 16 be 4d 85 96 3d e5 2b 2c bd
       -0.07540239 -0.14687654 0.07349644 -0.04203405
0001e0 ee 5e ba bd 2e b7 09 bd be 04 fb bd 92 1b 62 3d
       -0.09100138 -0.03362196 -0.12256764 0.055202074
0001f0 54 a7 a4 bd b3 f6 81 bd 8b b4 54 bd da 9b 0a bd
       -0.08039728 -0.06345882 -0.05192999 -0.033840038
000200 27 88 ac 3b 65 f6 3f 3d 90 7f 23 bd 2b d8 a3 bd
       0.005265254 0.04686584 -0.039916575 -0.08000215
000210 e9 e1 0c be 6c d7 a5 bd 00 6f 2a bd 93 d1 ab bb
       -0.13758053 -0.08097729 -0.041609764 -0.005243489
000220 e2 d2 9a bd e6 16 0b 3d 91 ec f5 bc fd 6e b4 bd
       -0.07559754 0.033957385 -0.03002003 -0.08810232
000230 8e b2 1a be 76 0d 25 be 95 28 78 3c cc a9 31 bc
       -0.15107176 -0.16118416 0.015146394 -0.010843705
000240 43 4f a1 bc 1b c1 c7 3c 3a d6 e2 3c 4c fc aa bd
       -0.019691115 0.024384072 0.027690042 -0.08348903
000250 36 2a 3c 3c 9b 69 2c bd 35 35 5e 3d 37 fc a8 3d
       0.011484673 -0.0420929 0.05424996 0.08251231
000260 c5 70 fe bc 7c f6 36 3c 65 8b 61 bc 3f a6 1a 3d
       -0.031059632 0.011167165 -0.013766144 0.0377562
000270 ae ef ed bc 03 98 71 3c 42 df 82 3a cb 64 12 bd
       -0.029044952 0.014745715 0.0009984749 -0.035740655
000280 96 74 d1 3c cd 65 83 3d 1f 18 91 bb e8 1d ee bc
       0.025568288 0.06415901 -0.0044279243 -0.029066995
000290 69 d5 f1 bd 2c 2f 82 3d 65 02 0f 3d a5 0d 0e bd
       -0.11808283 0.063566536 0.034914393 -0.03468098
0002a0 5d b1 d5 bd b4 fc 22 bc 56 b0 6f 3c a4 46 8f 3e
       -0.1043422 -0.009947944 0.014629444 0.27983582
0002b0 5d 6c 7b 3d 13 ea 70 3d 2d 88 1a bd 95 eb bb bd
       0.06138264 0.05881698 -0.037727524 -0.09175793
0002c0 1d 3d 86 3c 5a f7 27 3c 8c 85 84 bd a1 7a 1c bc
       0.016386563 0.010251844 -0.064707845 -0.009550721
0002d0 32 3c b5 bd 59 a4 5f bd f1 fd 60 bd da 54 82 3c
       -0.08849372 -0.054600094 -0.054929677 0.015909601
0002e0 6d 34 c2 bd ff 0f f7 bc 38 1d 6e bd 41 31 4d 3c
       -0.09482656 -0.030158995 -0.058133334 0.01252395
0002f0 76 30 10 bd 1d d0 e9 bd 73 39 6c bd f4 f9 33 3d
       -0.035202466 -0.114166476 -0.057671975 0.043939546
000300 ef 46 b9 3c 4d 0c 54 bd b5 d7 ab 3d 7a 85 21 bc
       0.022616832 -0.051769543 0.08390752 -0.009858483
000310 3d b6 d2 bc 9d 88 a0 bd bd 4d 32 bd 54 2e 41 3d
       -0.025721664 -0.07838557 -0.04353117 0.047163323
000320 4d b0 2d bd 79 50 96 bd 0b 20 52 ba 36 d4 bf bd
       -0.04240446 -0.07339568 -0.0008015639 -0.09366648
000330 8c ca ae bd 8f c2 e2 bc 2f 89 8b 3d 1b e1 7e 3a
       -0.085347265 -0.027680663 0.06813275 0.00097228744
000340 70 58 65 3d 46 c5 10 bd b3 00 d0 bc 74 9c 41 bd
       0.055992544 -0.035344385 -0.025390958 -0.047268346
000350 5e a1 1d 3d 0c 97 5a 3c fb 43 8f 3c ad 19 69 3d
       0.03848397 0.013341676 0.01748847 0.056909252
000360 5c d7 43 3c 8b ff 8e 3c b4 6a 6a 3d d5 63 20 3c
       0.011953201 0.017455837 0.057230666 0.009789427
000370 ea ae 8d 3b 2e 40 56 3c 5e d1 a9 bc 2f 3f d1 3d
       0.00432383 0.013076825 -0.020729717 0.102171294
000380 a1 df b6 3c 68 a8 58 3d 72 c9 4f 3d 7e ca 7e 3d
       0.022323431 0.05289498 0.050729223 0.06220483
000390 7e db 3a 3c 93 08 80 3c 1b 42 06 3e a8 0a 08 3e
       0.01140487 0.015629089 0.13111155 0.13285315
0003a0 b3 6b eb 3d 6c 83 91 3d 47 34 51 bb f9 98 a5 3d
       0.11495151 0.07105145 -0.003192203 0.08085818
0003b0 a7 c5 28 3e ec 1b 82 bd 5d 04 fb bc 0c eb d0 3b
       0.16481648 -0.06352982 -0.030641729 0.006375676
0003c0 04 7c 76 bd 0b 6e d5 3c 44 e2 a5 bc 86 04 a8 bc
       -0.060176864 0.02605345 -0.020249493 -0.02050997
0003d0 79 b8 20 be 62 72 90 ba 60 74 bb bd c5 c2 0c bd
       -0.1569537 -0.0011020417 -0.09153056 -0.034365434
0003e0 af 2a 08 be ad c3 01 3c 0c 83 b9 bd b3 d7 de bd
       -0.13297532 0.007920188 -0.09058198 -0.10880985
0003f0 a9 10 88 bd 51 56 e2 bc 04 d6 a1 bd 4e 9d 90 3d
       -0.06643803 -0.02762905 -0.07902148 0.070612535

module.layer1.convs.0.bias f4 [32]
000000 f8 77 84 bc 6f 5b fc 3a 73 5e 89 bc 0a 94 5d 3c
       -0.016170487 0.0019253324 -0.01676867 0.013524065
000010 7f 83 72 bb c3 4b ba bc 4e e5 18 bb dc 74 52 3c
       -0.0037004647 -0.022741204 -0.0023330036 0.012845244
000020 fa 29 cf ba ad 34 d1 3d f5 66 f5 3c f2 65 67 3c
       -0.0015805357 0.10215125 0.02995632 0.014123427
000030 b2 89 8a bc 8b 77 4e bc 3e 5a 55 3d 9d 8a 94 bd
       -0.016911361 -0.012601743 0.052088015 -0.07253001
000040 7b f3 33 bb 1d 4f a2 bc a5 9a 1a bd 2b c6 b5 bc
       -0.0027458358 -0.019813115 -0.037745137 -0.02218922
000050 94 0a d7 3c 4e 1a fd 3a 97 7a 0f bc 2c 9b 2d bc
       0.026250161 0.0019310208 -0.008757255 -0.010596078
000060 7d ae e7 ba 31 a8 a4 bc b5 49 a0 bb 33 aa 1c 3d
       -0.0017675903 -0.020099731 -0.004891599 0.038248252
000070 d3 56 00 3c 43 f1 52 bc c7 f4 78 3b 47 7c d1 bc
       0.0078332005 -0.012874904 0.0037987696 -0.025571955

module.layer1.convs.1.weight f4 [32, 32, 7]
000000 07 70 ad bc 20 80 9c bb 87 5c a3 3d 25 f4 96 3d
       -0.021171583 -0.004776016 0.079766326 0.073707856
000010 b8 d2 8d 3d 9b 90 ef 3d 3f 16 b3 3d 40 2f 8b bd
       0.06924957 0.11697503 0.087444775 -0.067961216
000020 da 34 06 be 07 03 1e be a0 25 45 bd 5b 9a 29 bd
       -0.13106099 -0.15430842 -0.048131585 -0.04140697
000030 b4 c7 bf bd ee 1f a0 3c a5 c9 fb 3c 2f f7 91 bd
       -0.09364262 0.019546475 0.0307358 -0.07127225
000040 ad 6e 60 bd 2e 9c a6 bd f1 af 84 bc e8 9c 3d bd
       -0.05479305 -0.08135258 -0.016197177 -0.046292216
000050 2d 83 78 bd bd 35 95 bc d0 e4 08 bd 0f 9c 21 bc
       -0.060671974 -0.018214101 -0.033421338 -0.009863867
000060 b0 9a 2a 3d 5f 1b c7 bd b7 a6 d5 bd 92 0d 7a 3d
       0.041651428 -0.097220175 -0.10432189 0.061048098
000070 75 70 9d bc ad ff 74 ba 7c f7 a9 bc 4c 0f e4 3c
       -0.019218663 -0.000934596 -0.020747893 0.027839325
000080 3e bb c6 bc e9 90 98 bc 8d ae de bc 90 1c 4f bc
       -0.024259206 -0.018623786 -0.027182842 -0.012641087
000090 97 e8 35 3d fb b3 a1 3d 78 ae 48 3c 89 b7 b6 bc
       0.044411268 0.07895657 0.012248628 -0.022304313
0000a0 7c 18 03 3c 56 84 ed 3c ca 13 14 bd 06 f9 d6 3b
       0.008001443 0.028993767 -0.036151685 0.0065604476
0000b0 bb 41 c9 3c 9d 05 19 3e 70 3a 9e 3d cf 46 ba 3d
       0.024567476 0.14943548 0.0772599 0.09095537
0000c0 97 4e c6 3d 75 26 62 bc 9c 1a 2c bd f3 08 00 3d
       0.096829586 -0.013803114 -0.042017564 0.031258535
0000d0 ac 9e ee bc e3 39 6e 3c 34 ed c5 3c 96 af b1 bc
       -0.029128395 0.014540168 0.024160959 -0.021690171
0000e0 9f d9 f1 3b fc bf ca bb 7a bc 0f 3e 91 44 be 3d
       0.007380679 -0.006187437 0.14036742 0.09290422
0000f0 1d 05 c5 3c 67 61 e6 3d 78 8e 88 3d d0 fa 85 3c
       0.02405029 0.11249047 0.06667799 0.016354948
000100 0d ef 89 bd 74 9a 3a 3d cb 1e f0 3d b0 77 f3 3c
       -0.067350484 0.045557454 0.11724623 0.029720157
000110 6e a3 c2 3d bd c5 a5 3d c2 fc 94 3d 32 4c 54 3d
       0.09503828 0.08094356 0.07274772 0.051830478
000120 78 be 90 3d 1f cf d8 ba 17 fe 90 3c de 11 6f 3b
       0.07067579 -0.0016541219 0.017699284 0.0036479156
000130 d9 98 a4 3d 06 53 11 3d 1e 02 b3 3d c9 94 f6 3d
       0.08036966 0.035479568 0.08740638 0.12040097
000140 59 bc b5 3d 89 bb c4 3d 38 40 79 3d e7 49 cb bb
       0.08873815 0.09606082 0.06085226 -0.006203878
000150 63 d3 e6 3c aa cd 2d bd de a7 87 3d b5 22 24 3e
       0.028176969 -0.042432465 0.06623815 0.16028865
000160 10 f6 36 3c df a8 84 3d 4e 62 50 3e 95 c7 72 3d
       0.011167064 0.06477522 0.2035 0.059272368
000170 92 8f 19 3e fd 8c 44 3d ba 30 e8 bd ab 52 77 3d
       0.14996174 0.04798602 -0.11337419 0.060381573
000180 0c a0 2f 3d f0 c6 c1 bd 99 45 07 bd 9c 5c 88 3d
       0.042877242 -0.094617724 -0.033025358 0.06658289
000190 03 3a 5f 3d 6e a0 82 bc 24 00 33 3c b5 f8 03 3d
       0.054498684 -0.01594564 0.0109253265 0.032219607
0001a0 92 46 95 bc e5 58 61 3d c2 76 e2 3c 41 68 82 3c
       -0.018222127 0.055016417 0.027644519 0.015918853
0001b0 a9 37 88 bc a8 5b 13 3d ce d4 8d 3c 4e ae 45 3a
       -0.016628103 0.035976082 0.017313387 0.0007540927
0001c0 ab 86 8b bd d2 b7 97 bb e0 cb f8 3d a0 8b bb 3b
       -0.06812795 -0.0046300674 0.12148261 0.0057234317
0001d0 73 19 6a 3c ba 33 95 3d 28 f5 b6 3d 7b 6d de bc
       0.014288294 0.07285257 0.089334786 -0.027151814
0001e0 46 22 7f bd 59 03 18 ba bc ad 89 3a 56 68 95 3d
       -0.062288545 -0.00057988387 0.0010504047 0.07295291
0001f0 d1 c5 3f 3d 35 82 10 3c 1b da 61 bd 94 02 c8 bd
       0.04681951 0.008820106 -0.055139642 -0.09766117
000200 c8 f8 ac bd fe ea ab bd 57 c2 f6 bd ef f2 cf bd
       -0.08445889 -0.083944306 -0.12048786 -0.10153758
000210 b9 3e d8 3a f4 ea 40 3c 6a 32 a3 bd 6b 2e 9b bd
       0.0016498185 0.011774767 -0.079686 -0.07577213
000220 5a 15 f3 bc 74 e9 01 bc 9e a8 59 bd 69 76 85 3c
       -0.029673267 -0.007929195 -0.05313932 0.016291814
000230 1f 2f 04 be 13 e5 40 bd 5b fb 86 3c dd 8e a1 bc
       -0.129086 -0.047093462 0.016477278 -0.019721443
000240 0c a8 6a bb ff 2b 54 3d ae aa 37 bd e8 9d ac 3d
       -0.003580573 0.05179977 -0.044840507 0.08428556
000250 22 e5 28 3e 54 73 fa 3d 1f 04 96 3c ef 26 4c 3d
       0.16493657 0.12229028 0.018312512 0.049841817
000260 58 b3 06 3e b2 05 2b 3d 41 4c 49 3d 80 59 b5 3d
       0.13154352 0.04175348 0.049144987 0.088549614
000270 95 7b bd 3d b0 20 59 3d c6 17 99 3d 96 49 91 3c
       0.09252087 0.05300969 0.074752375 0.017735284
000280 25 5b 08 bc b4 d2 3d be 0f 04 d2 bd 07 6c b1 bd
       -0.008322512 -0.18537408 -0.1025468 -0.08663183
000290 31 69 c6 bd 83 d9 d9 bd 9c 44 da bd a0 a5 49 bd
       -0.096880324 -0.1063719 -0.106576174 -0.049230218
0002a0 22 bc 5d bd a3 cf ef bc 54 72 7e bb de bd c6 bc
       -0.054134496 -0.029273814 -0.003882547 -0.024260458
0002b0 06 01 6a bd d9 1d 06 bd 8b 07 84 bd 1a b0 67 bd
       -0.057129882 -0.03274331 -0.06446751 -0.056564428
0002c0 f8 80 1f bd 05 26 18 bd 19 62 47 3d db 17 30 3d
       -0.038941354 -0.037145633 0.048677538 0.0429915
0002d0 bb c5 e4 3c 4f af e2 3d 0d 3d 5e bd d3 17 0c 3b
       0.027926316 0.11068594 -0.05425744 0.0021376505
0002e0 b3 08 b3 bc 66 c0 3c bd a4 f4 ed 3d e1 3e dc 3d
       -0.021854734 -0.046081923 0.11618927 0.10754181
0002f0 60 15 b9 3d 9e 4f 03 3e 4c 46 73 3d b1 2d fd 3c
       0.0903728 0.1282334 0.059393212 0.030905576
000300 29 91 a6 3d 31 83 1d 3d 6b 28 c8 3d 21 00 bd 3c
       0.08133156 0.038455192 0.09773334 0.02307135
000310 b8 4c af 3b 27 37 72 bd cf fc 00 bc 55 14 df ba
       0.0053497218 -0.05913463 -0.007872774 -0.0017019609
000320 ff 75 82 bd 1b 6d 93 bd 37 7e c8 bd 06 39 89 bd
       -0.06370162 -0.071985446 -0.097896986 -0.067003295
000330 b5 d4 f8 bd 20 a9 0a be f6 ff 63 3c 22 3a 74 bd
       -0.12149946 -0.13541079 0.013916006 -0.059625752
000340 1e 2e d8 bd 51 68 0f 3d 01 d9 fa 3a 2c 14 b3 bc
       -0.10555671 0.035011593 0.0019138159 -0.021860205
000350 77 2b 64 bc e4 fe 39 bd 45 cc 3a 3c a9 20 15 bc
       -0.013926378 -0.0454091 0.011401241 -0.009102025
000360 57 20 c8 bc a2 95 a0 3d 6e e9 0c 3d f2 22 41 3c
       -0.024429483 0.0784104 0.034402303 0.011788117
000370 e9 cf c8 bb 6a c4 e3 3b f9 1f ab 3b 32 51 7f b9
       -0.0061283004 0.0069509046 0.0052223173 -0.00024348943
000380 01 41 01 3b aa 4a a3 3c 38 50 12 bd fd 8e 0e 3d
       0.0019722583 0.019933064 -0.035721034 0.034804333
000390 29 79 2c 3d bc 9e 6f 3c 87 c8 02 3d ed 19 58 bd
       0.042107735 0.014625248 0.03192952 -0.0527591
0003a0 9c 28 18 be f8 28 2b 3c d0 d8 53 3c e2 76 24 be
       -0.14859241 0.010446779 0.01293011 -0.16060975
0003b0 f0 f4 8c bd 73 2f 15 3e 0c de 92 bd cd 95 c6 3d
       -0.068826556 0.14568882 -0.07171258 0.09696541
0003c0 23 9b 3b bd 5a 9d 2d bd ad 41 cf 3d af 16 8a bc
       -0.045802247 -0.04238639 0.101199485 -0.01685652
0003d0 15 78 05 be 02 d6 00 be 83 98 12 3d 66 1b 91 3d
       -0.13034089 -0.12581638 0.035789978 0.07085304
0003e0 04 82 b9 bd 03 9f 11 3c 3f 07 05 3e 3b ae c3 3d
       -0.09058002 0.008888009 0.12991045 0.09554716
0003f0 40 5c 06 bd cd b0 e3 bc 1f 01 8a bd 2e 87 a2 3c
       -0.03280282 -0.027794266 -0.06738495 0.01983985

module.layer1.convs.1.bias f4 [32]
000000 52 6e 32 3b 6f 51 15 3d 04 3d 87 bc 9d 9f b0 bd
       0.00272264 0.036454614 -0.016508587 -0.08624194
000010 48 1d d0 3c a8 8a 8f ba d0 41 06 bd d6 a7 71 bd
       0.025404587 -0.0010951357 -0.032777607 -0.05899795
000020 ed c4 9c bb 45 dd c3 bc 83 2f 7d ba 6e 90 07 ba
       -0.0047842176 -0.02390922 -0.0009658264 -0.0005171363
000030 62 d9 4b bd ac f1 26 bc 44 7e d2 3b df a3 39 3d
       -0.04976786 -0.010189455 0.0064237434 0.045322295
000040 b5 81 99 bb 3d ad 95 3c 91 ba 0b bb f2 98 3c 3d
       -0.0046846517 0.018271083 -0.002132092 0.046044298
000050 99 ac e1 3a 56 25 bc 3b 4b b0 35 bd 2e 8e 5f 39
       0.0017217576 0.0057417555 -0.04435758 0.00021319903
000060 e6 c8 5a 3b 42 33 50 3b 74 b8 98 bb 5f 7c 96 3c
       0.0033383905 0.0031768833 -0.0046606604 0.018369852
000070 4a 53 18 3d 11 3b 66 3c a0 07 52 3c 50 b4 fe 3c
       0.037188806 0.0140521685 0.012819201 0.03109184

module.layer1.convs.2.weight f4 [32, 32, 15]
000000 14 af b4 3d 84 48 82 bc 9b 48 bc bd 1a 40 5d bc
       0.08822456 -0.015903719 -0.09193536 -0.013504053
000010 0b 89 96 3c e8 34 18 3e 19 4c c4 3d 57 d9 38 bd
       0.018375894 0.14863932 0.09584827 -0.045129146
000020 90 47 b0 bc 01 6e 83 bd 69 6d 45 be 59 c9 f3 bd
       -0.021518499 -0.06417466 -0.19280018 -0.119036384
000030 2f 50 8d bd ff 11 5c bb 2a 8c ac 3d 84 8c df bc
       -0.069000594 -0.0033580062 0.08425172 -0.027288683
000040 05 35 ec bb 11 ba b8 3c 82 42 2b bd bd ad 5a bd
       -0.007208469 0.02254966 -0.041811474 -0.053388346
000050 db 67 1a 3d cf 0f 95 3d 41 e8 d8 3d 31 ca 9b 3d
       0.0376967 0.07278406 0.10591174 0.07606924
000060 15 d1 2b bd dd 39 93 bd 5c 6a 12 3d 77 c0 52 bc
       -0.041947443 -0.07188771 0.035745963 -0.01286327
000070 ff 8f fd bc 7d 7b 23 bd 12 70 07 3d f9 fa d3 bd
       -0.030952452 -0.03991269 0.033065863 -0.103506036
000080 94 9b 40 bd 2b ba d2 bd 72 65 07 bd 00 82 72 bc
       -0.04702337 -0.10289415 -0.03305573 -0.014801502
000090 2a c4 07 bc 09 81 a0 ba 07 f1 a6 3a 1f e4 ea bb
       -0.008286515 -0.0012245487 0.0012736627 -0.0071683074
0000a0 83 99 4c 3d 99 51 41 3d 60 b1 97 bd c1 a8 21 3d
       0.049951088 0.04719696 -0.074068785 0.039467577
0000b0 e0 4e 07 bc fd 4b 04 3e 44 60 10 bd 59 f4 10 bd
       -0.008258551 0.12919612 -0.035248056 -0.035389278
0000c0 d8 eb a2 3c 11 26 1f bd 5a 44 4a 3d 19 a8 66 bd
       0.01988785 -0.038854662 0.04938159 -0.056312654
0000d0 8b 2c 51 bd 06 81 24 bb 4f 79 9f bd 65 2c 72 3c
       -0.05106787 -0.0025101318 -0.0778681 0.014781092
0000e0 54 49 8c 3d df e0 ab 3d 91 f6 b5 3a 1b 3e 20 3b
       0.06849924 0.083925 0.0013882687 0.002445108
0000f0 87 4c 5f 3d c5 fd ec 3b f0 b1 39 3d 35 b2 cb 3d
       0.05451634 0.0072324 0.04533571 0.099461
000100 f2 6e 67 3d 22 e5 5d 3d a5 9b 58 3d 08 26 b4 3c
       0.05650229 0.054173596 0.05288281 0.021990791
000110 52 f8 98 3c 57 4d 4f 3d f2 e0 73 3d 16 39 02 3d
       0.018673096 0.050610866 0.059540696 0.031792723
000120 92 9e 5c 3b c7 e3 b9 3c 7e 46 6f 3c 99 02 48 3c
       0.0033663851 0.02269162 0.014604209 0.012207651
000130 3b f9 cb 3b 7b 16 18 bd 8f 4f 8e bc b9 9b 0c bd
       0.006224779 -0.037130814 -0.01737192 -0.034328196
000140 0d 7d 1e bd 41 47 a7 bd 42 e1 97 bc f4 8d 89 3d
       -0.038693476 -0.081678875 -0.018540028 0.067165285
000150 69 0d b7 3c 4a e3 14 3d d1 22 fc 3c 66 81 38 3d
       0.022345262 0.036349572 0.03077832 0.04504528
000160 92 66 03 3d ae 1b b5 bd a8 7f 10 be c5 40 44 3d
       0.03208024 -0.0884317 -0.14111197 0.04791333
000170 ba 3e fe 3d 2a b1 19 3e 42 13 89 bb a5 db 84 bc
       0.12414308 0.15008989 -0.004183204 -0.016218016
000180 c5 ef 31 3d df 25 9e 39 67 eb cf 3c 15 c6 e0 3d
       0.043441553 0.00030164325 0.025380803 0.10975281
000190 5f d2 5a 3d e4 47 95 bd 8d 3c df bc b2 ab 7b 3d
       0.05342328 -0.07289103 -0.027250553 0.06144304
0001a0 72 3e 6c 3d a9 e5 f4 bc ad 56 d8 bb 28 5e a5 bc
       0.05767674 -0.029894667 -0.0066021294 -0.020186499
0001b0 36 23 2b be e4 f8 33 bc 9e 95 f8 3d 88 d8 1f 3b
       -0.1671265 -0.010984633 0.12137912 0.0024390537
0001c0 f1 6e 55 bd b3 f0 2f 3d d2 03 99 3c 6d d1 7b 3c
       -0.052107755 0.042954158 0.01867858 0.015369755
0001d0 9c b9 d3 bd e1 85 b7 bd 13 44 09 3d ea 69 f4 3c
       -0.103381366 -0.08961082 0.033512186 0.02983566
0001e0 1a 65 bf bd 81 bf b3 3c 14 a9 c7 3b e4 0f db 3c
       -0.093454555 0.021941902 0.0060931537 0.026740976
0001f0 a6 29 30 3d d9 ba 60 3d e7 ac 8a 3d bd 70 5e 3d
       0.04300847 0.05486569 0.0677126 0.054306734
000200 77 d1 8e 3d 1d 68 d0 3b 0e 7e 73 bd f6 13 01 bd
       0.06973546 0.0063600675 -0.059446387 -0.031513177
000210 94 e1 f8 bb 04 83 a2 bc e0 56 1e 3d 74 18 1a bd
       -0.0075952504 -0.019837864 0.03865707 -0.037620977
000220 72 35 85 3c f3 78 64 bd 25 eb e3 bc fa d9 b3 bb
       0.016260836 -0.05577941 -0.027822087 -0.0054886313
000230 c8 79 c6 3d 15 22 e8 3d 22 4b 5e 3d 81 ae 57 bc
       0.09691197 0.11334626 0.05427087 -0.013164164
000240 b4 6d cf bd ee 51 25 be 18 c5 28 bd 06 4e ee 3d
       -0.10128346 -0.16144535 -0.04120359 0.116359755
000250 55 1f 30 3c 83 4c a6 bc 63 da d5 bd 2e 4b 06 bd
       0.010749658 -0.020300156 -0.104420446 -0.03278654
000260 13 eb 63 3d cf c7 fe 3c 0b 38 84 3d 43 fb f9 3d
       0.055644106 0.031101136 0.06456002 0.122061275
000270 01 87 66 bc dc 60 68 bd e6 9a 99 bd 45 39 bf bd
       -0.014070273 -0.056732997 -0.07500248 -0.09337095
000280 07 b1 96 3d ac b6 13 3c 29 54 23 3c d2 d5 a4 3d
       0.07357984 0.00901572 0.009968796 0.080485955
000290 0f b2 21 3e b5 87 9b bd 31 8d 26 bd 70 e8 13 bc
       0.1579058 -0.075942434 -0.040661994 -0.009027585
0002a0 96 ac b5 bd 64 aa 98 bd 18 06 c3 bd 8b 2b 8e bd
       -0.08870809 -0.074543744 -0.09522647 -0.06941899
0002b0 2a c6 8b bd 4f 24 11 be 62 1a b8 bd 57 50 23 3c
       -0.06824906 -0.14174007 -0.08989407 0.009967885
0002c0 26 45 84 3d 28 90 bc 3c cf 6d 91 3b 32 11 15 bd
       0.064585015 0.023017958 0.004438139 -0.03639335
0002d0 d2 9d e0 3b 75 0d 1c bc af f6 96 3d eb 12 ae 3c
       0.006854751 -0.009524693 0.0737127 0.021249255
0002e0 41 6e f5 3d ba 8c 0a 3e b0 0d 06 3e 36 85 03 3d
       0.1198392 0.13530245 0.13091159 0.03210946
0002f0 ad 70 6d bc 07 da aa bc 85 08 3e be 75 43 98 bc
       -0.014492196 -0.020855917 -0.18557937 -0.018586854
000300 a0 23 70 bd 24 0c 3f bd 45 82 3d bd 91 a8 48 bd
       -0.058627725 -0.046642438 -0.046266813 -0.048988882
000310 d3 2a fe bd 69 f0 aa bd cd 87 2c bc cf 5e f3 bc
       -0.12410512 -0.08346636 -0.010530424 -0.029708294
000320 b9 43 a6 bc 10 91 cd bb 6b 4a 56 3d 4d 62 2e 3b
       -0.020295965 -0.0062733963 0.052317064 0.0026608885
000330 9a 6b 51 bd b9 d1 77 3d 90 49 9d bc 4c 8b 11 bd
       -0.051128007 0.06050274 -0.019200116 -0.035533234
000340 07 e1 4d 3d b7 f0 16 3d f1 ff c6 3c e2 77 fa 3d
       0.05026343 0.036850657 0.024291964 0.12229897
000350 0f 25 70 3d f5 88 f1 bc 3a e3 89 3c c1 9b db 3c
       0.05862909 -0.029484252 0.016831983 0.026807668
000360 52 74 b9 bc 81 ee 67 bc cd 1d c9 3c 8c 6d 52 3d
       -0.022638474 -0.014155985 0.024550343 0.051374003
000370 d8 d8 95 3b e8 a0 7c bd 59 29 99 bd 21 a9 59 bc
       0.004572969 -0.06167689 -0.074785896 -0.013284952
000380 a1 d5 ad bc af 29 d6 bd 6a 3b e6 bd 98 3b de 3d
       -0.02122003 -0.10457169 -0.11241801 0.1085121
000390 a1 8a 02 3e 96 b9 8f 3c f6 43 f9 bc 3f cd 32 bc
       0.12748195 0.017544549 -0.030427914 -0.010913192
0003a0 47 34 2e 3b 71 b5 79 3d fd b3 ae 3d 20 d7 94 3d
       0.0026581453 0.06096405 0.08530424 0.07267594
0003b0 c2 d8 87 bd 20 40 95 bd b7 f0 f2 3c d4 b2 b8 3d
       -0.0663314 -0.072876215 0.029655797 0.09018484
0003c0 27 f0 2f bd 16 a9 4c bd c1 3b 70 3d 61 f1 83 bc
       -0.042953636 -0.04996594 0.058650736 -0.01610631
0003d0 21 24 4c bc 9d ab 7e 3d a1 16 10 bd 2a 37 06 3c
       -0.012459786 0.062175382 -0.03517783 0.008191863
0003e0 01 35 f3 3d 00 4c 31 3d 90 f1 10 3d 48 c6 1f bc
       0.11875344 0.04328537 0.035386622 -0.009751864
0003f0 7f 7a f7 bd 0b 10 f3 bb 6f d7 11 3c e3 4a 27 bd
       -0.12083911 -0.007417684 0.008901461 -0.040842902

module.layer1.convs.2.bias f4 [32]
000000 e9 2a 25 3b 27 76 8a 3c 0c 4a 21 bc de 83 4d bd
       0.0025202578 0.016902043 -0.009844314 -0.050174586
000010 6f 7b 4d 3d cd e5 62 3b 84 b9 05 3c 00 c2 31 3c
       0.050166544 0.0034621835 0.008161906 0.010849476
000020 fb f1 ef 3b 7d ac da bc 4d f3 2a bd 65 38 59 3d
       0.0073225475 -0.026693577 -0.041735936 0.053032298
000030 9b 0a ba bc 9a 00 0e 3c 9d 50 48 bc 1a d8 be 3c
       -0.022710135 0.008667136 -0.012226251 0.023296405
000040 75 13 5f bb 6e 29 95 bc 1e fe b1 3b 73 4b 8b bb
       -0.0034038697 -0.018208232 0.0054319045 -0.0042509376
000050 0d cd 63 bd 80 68 09 3c 5d 19 bf 38 ec 4c be 3c
       -0.055615474 0.008386731 9.112314e-05 0.023230039
000060 52 37 b6 bc d5 d2 be bc 78 62 cb 3c 4a 90 e2 bc
       -0.022243176 -0.023293892 0.024827227 -0.027656693
000070 5c d4 94 bc a4 21 e8 bc 1a 50 f2 3b ec 03 60 3b
       -0.018167667 -0.028336354 0.0073948028 0.0034182025

module.layer1.bn.weight f4 [96]
000000 a2 a7 e5 3d 7f 8d 3e 3e a4 81 be 3d fa 1a 28 3e
       0.11213614 0.18608664 0.09302071 0.1641654
000010 7e 30 31 3e 7e e4 7c 3e 59 6d 31 3e e7 00 48 3e
       0.17303655 0.24696538 0.17326869 0.19531594
000020 56 1b 3c 3e 29 47 41 3e 59 32 16 3e e6 ef 3d 3e
       0.18369803 0.18874802 0.14667644 0.18548545
000030 64 48 46 3e 74 95 fb 3d e7 fa 3c 3e a3 f0 83 3e
       0.19363552 0.12284365 0.18455087 0.2576953
000040 91 ba 1b 3e 9c dd 44 3e ef 2d 87 3e 25 44 62 3e
       0.15207888 0.19225162 0.26402232 0.22096308
000050 6f 65 10 3e b1 fd 4d 3e 3a 79 40 3e 6c f2 1c 3e
       0.14101194 0.20116307 0.18796244 0.15326852
000060 8a e1 2f 3e de 4f 39 3e f8 50 5c 3e dc 27 1d 3e
       0.1717588 0.18096873 0.21515262 0.15347236
000070 f4 1b 4d 3e 63 c3 5a 3e b8 99 08 3e e1 18 76 3e
       0.20030195 0.21363597 0.13339889 0.24032928
000080 d7 0f 35 3e 2e be 63 3e 73 cb 35 3e 1a a4 30 3e
       0.17681824 0.22240517 0.17753391 0.172501
000090 9a 86 59 3e d7 fb 24 3e fd aa 4b 3e e3 6e 40 3e
       0.21242753 0.16111694 0.19889446 0.187923
0000a0 60 23 65 3e 2b b4 70 3e 58 a6 94 3e 52 01 53 3e
       0.22376776 0.23506229 0.2903316 0.20605972
0000b0 1c 30 4c 3e f2 51 89 3e 6d 97 87 3e f4 2b 42 3e
       0.19940227 0.26820332 0.26482716 0.1896208
0000c0 d0 d3 57 3e 7a b8 71 3e 64 47 8f 3e dc 55 8e 3e
       0.21076894 0.23605528 0.27984154 0.2779988
0000d0 ed 76 16 3e af 0a 76 3e f4 24 4e 3e e9 4a 8f 3e
       0.14693804 0.24027513 0.20131284 0.2798684
0000e0 9f 8e 45 3e 01 92 9d 3e 56 64 75 3e 8c aa 83 3e
       0.19292687 0.30775455 0.23964056 0.25716054
0000f0 ff 06 58 3e 99 73 49 3e b4 3d 78 3e 29 0f 82 3e
       0.21096419 0.19673003 0.24242288 0.2540219
000100 00 74 30 3e bd 06 83 3e b0 03 6d 3e 75 ec 62 3e
       0.1723175 0.25591078 0.23145938 0.22160514
000110 65 0e 4e 3e 88 63 79 3e fe 0d 8f 3e ea 5d 77 3e
       0.20122679 0.24354374 0.27940363 0.24156919
000120 e2 a3 64 3e b0 45 82 3e 4c 20 7b 3e 4c 7c 8a 3e
       0.22328141 0.25443792 0.24524039 0.27047956
000130 9b b5 42 3e b7 3b 6f 3e 46 c1 71 3e fb 22 5b 3e
       0.1901459 0.23362623 0.23608884 0.21400063
000140 3a 8a 5d 3e 36 85 5d 3e 72 83 6d 3e fb e3 66 3e
       0.2163476 0.21632847 0.23194674 0.22547905
000150 c3 01 66 3e 4e ce 61 3e cf bd 5c 3e 3e f0 65 3e
       0.2246161 0.22051355 0.21556781 0.22454926
000160 1d 49 5f 3e 9c e4 56 3e 87 e1 43 3e 0f cf 90 3e
       0.21805234 0.20985645 0.19129 0.28282973
000170 98 10 6d 3e 05 82 7e 3e 6c 93 84 3e 12 f2 7c 3e
       0.23150861 0.24854286 0.25893724 0.24701717

module.layer1.bn.bias f4 [96]
000000 dd e5 15 bc 9f 05 22 3c a8 23 eb bb 19 15 6a bb
       -0.009149042 0.0098890355 -0.0071758814 -0.0035718142
000010 7e b2 a0 3b 6e 5f d8 bd d9 d3 9c bb ce 35 0c 3b
       0.0049040904 -0.10565077 -0.0047859964 0.0021394375
000020 75 dc a3 bd 99 70 15 bc 69 35 0c b9 b5 52 3a ba
       -0.08001033 -0.009121084 -0.00013371337 -0.0007107661
000030 b8 16 2e bb 2b 0f af bd b0 c0 51 bc 0e 72 d7 bb
       -0.0026563834 -0.08547815 -0.012802288 -0.0065748757
000040 7d a1 97 bd 22 d3 4a bb 68 be 54 bb 41 ab a9 3b
       -0.07403848 -0.00309486 -0.0032462124 0.0051778858
000050 96 84 e0 bc 9e be 9c 3b 73 ca 51 3a d8 6e d9 bc
       -0.027406972 0.0047834655 0.00080028846 -0.026542112
000060 22 70 96 bb fe 9c dd 3b c0 db 16 be 45 64 15 bc
       -0.004591004 0.0067630997 -0.14732265 -0.009118144
000070 59 e8 62 3c e9 97 fa ba 48 70 ce ba ad fe 06 3a
       0.013849341 -0.0019118759 -0.0015750015 0.0005149644
000080 8d ed 01 bc 61 59 b7 3b eb 36 0a 3b c6 30 99 3c
       -0.007930172 0.0055953716 0.0021089863 0.018700015
000090 23 6d 3b bc 43 3a 84 3a a2 48 cf 3b 5c d9 fa b9
       -0.011439594 0.0010088164 0.006325797 -0.0004784566
0000a0 0e 7c c7 3a 14 c0 e8 ba 84 e7 fe 3a 27 b9 15 bc
       0.0015219466 -0.0017757439 0.0019447659 -0.009138382
0000b0 a7 ea 39 3c e4 86 13 be f3 1b ac bb 3f 4b 2c ba
       0.011347449 -0.14406925 -0.0052523552 -0.0006572492
0000c0 b4 7b 31 3c 9f 5b 3a bb ca b4 ab bd 17 0e 16 3c
       0.010832716 -0.0028435958 -0.08384092 0.009158633
0000d0 38 62 b2 3b 6b 63 7b bc b7 e2 a0 bb 51 22 b5 bb
       0.0054438375 -0.015343527 -0.004909839 -0.0055277725
0000e0 17 bf 51 3c d2 ec 84 3c 0b 0d bb 3a 7b 27 11 bc
       0.012801907 0.016226206 0.0014270855 -0.0088595105
0000f0 a9 35 db 39 f1 df ca ba 42 8c ab 3b 9f 3d 50 ba
       0.00041810915 -0.0015478117 0.005235226 -0.00079437526
000100 ee a2 63 3b 5e c7 bf bd 9c ea fb bc 3d 3f 66 bc
       0.0034734565 -0.09364198 -0.030751519 -0.014053163
000110 0d e3 6e 3c 2b 15 dc bd a6 41 fd 3c d1 9b 0c 3c
       0.0145805 -0.10746225 0.030915093 0.008582071
000120 6d 4a 8b 3a f5 34 c3 bd 90 a6 fc ba 7e b9 74 3a
       0.0010627039 -0.09531585 -0.0019275714 0.0009335502
000130 c8 8d bb bb cb a6 3c 3c 49 eb b6 bd 1f 96 87 3b
       -0.0057236888 0.011514376 -0.08931596 0.004137769
000140 bf f1 e7 3b 06 20 69 3c 02 de d6 3a e1 21 8d bc
       0.007078379 0.014228826 0.0016393068 -0.017228069
000150 d8 c9 b3 bb 11 70 3c bc e1 01 a7 3c de dd b1 bb
       -0.005486708 -0.011501328 0.020386638 -0.00542806
000160 5f 95 6d 3d 3c ed 69 3c 8f 08 13 bb 79 2f dd bd
       0.05800378 0.0142777525 -0.0022435521 -0.1080007
000170 ed a2 04 be 2c 3a 10 3c 3f 74 45 bc 08 c6 9e bc
       -0.12952776 0.008802932 -0.012051641 -0.019381538

module.layer1.bn.running_mean f4 [96]
000000 16 99 05 bd 59 b8 d6 3c e1 fb c3 3c 78 08 20 bc
       -0.032616697 0.02621095 0.023923816 -0.009767644
000010 0a 2e 9e bc 98 b7 e7 bb fa be bf 3b 59 40 33 3d
       -0.019309063 -0.0070714466 0.0058516236 0.04376254
000020 5b 0f 88 bd e3 4b 89 3d d1 aa a8 3a 9d 42 82 bd
       -0.06643554 0.06703927 0.001286829 -0.06360362
000030 f2 26 e5 bc 62 34 41 bd 66 d6 53 3d e0 53 9e bd
       -0.027972672 -0.047169097 0.05171814 -0.07730842
000040 24 3f 47 3c 8b b1 5c bc e1 d8 57 bc d7 61 fa 3c
       0.01216105 -0.013470064 -0.013174267 0.030564232
000050 ae 90 93 3d d1 10 d8 bb e9 23 cc b9 61 2e 0a 3d
       0.0720533 -0.0065938015 -0.00038936667 0.033735637
000060 00 a2 9e bd cc bd b4 3c 9f 11 f2 bc 44 1b f4 3a
       -0.07745743 0.022063158 -0.029549418 0.0018623848
000070 23 08 8e 3d e6 c6 8c bd 12 83 6a bc f0 77 2f 3d
       0.06935146 -0.06873874 -0.014313476 0.04283899
000080 c0 8c 42 3d 1c 8b 3e 3d cf 0d 92 bd 13 6a 90 bc
       0.04749751 0.046519384 -0.0713154 -0.017628705
000090 42 b1 91 3d 0c 6f a8 bd 51 38 94 3c 39 0d 08 bd
       0.07113887 -0.082243055 0.01809326 -0.033215735
0000a0 84 01 cd 3c 7d a8 65 bd 71 90 09 3d 5a 7c a7 3c
       0.025025137 -0.056068886 0.033585016 0.020445038
0000b0 87 db 74 3c cd aa 42 bd a4 1d 94 bc 8f 17 2f bd
       0.0149449175 -0.04752617 -0.01808054 -0.042747077
0000c0 fd c5 94 3d be 39 1a 3d 56 a7 01 3d ed 4a a5 bc
       0.07264326 0.037652723 0.031653725 -0.020177329
0000d0 89 09 b6 bd 53 62 50 bc 45 63 1e 3c f4 1a 1b bd
       -0.088885374 -0.012718755 0.009667222 -0.0378675
0000e0 7f 25 d5 bc 4f 69 0d 3a af 7b 95 bc 6a 01 71 3d
       -0.026018856 0.00053944153 -0.018247453 0.05883924
0000f0 53 dd 40 3e 32 f6 87 3d 57 58 8c 3c a1 3c d9 bd
       0.18834428 0.06638755 0.017131967 -0.10607267
000100 b9 1d 39 3d fa b6 05 be 7f 57 76 bd c6 41 81 be
       0.04519436 -0.13058081 -0.060142037 -0.25245494
000110 8c ed 1f be d9 57 f7 3d 42 de a3 3e c1 66 43 3e
       -0.1561796 0.120773025 0.32005507 0.19082166
000120 8f 76 e8 3d 3e 77 8a be 4f f3 e4 3d 01 c5 77 3d
       0.11350738 -0.270441 0.1117922 0.060490612
000130 10 28 1e bd 70 59 38 3d f0 4b 4a be 50 db 81 3d
       -0.038612425 0.04500717 -0.1975553 0.06340659
000140 89 c2 a5 3d 07 47 1e 3c 33 f8 e3 3c 70 35 04 3c
       0.08093745 0.009660489 0.027828312 0.008069381
000150 f9 e1 85 bc ab 3e 89 bd b9 a1 9b bb 4a 29 50 3d
       -0.016343104 -0.06701406 -0.0047495035 0.050820626
000160 3d d4 e9 bd 62 8d 07 3d 2b 1a 16 3e 66 e4 55 bd
       -0.11417434 0.033093818 0.1465842 -0.05221977
000170 b1 33 39 3e 1c 8c 2c bd c5 2d 3e 3e e9 28 37 be
       0.18086125 -0.042125806 0.18572147 -0.178867

module.layer1.bn.running_var f4 [96]
000000 88 cb d0 3c 21 a5 d7 3c e0 b9 e2 3c 23 3c c7 3c
       0.025487676 0.026323857 0.027676523 0.024320668
000010 df 45 9a 3c f9 ac 91 3c 6c 35 26 3d 09 46 96 3c
       0.018832145 0.017782675 0.04057829 0.018343942
000020 d8 4d ad 3c 4f 9b b7 3c f1 6b d9 3c ea 8b bc 3c
       0.021155283 0.022412924 0.026540728 0.023015935
000030 ca b9 c3 3c 97 30 a9 3c 4a e9 c0 3c 06 9a 80 3c
       0.023892302 0.020653052 0.02354874 0.015698444
000040 b0 43 9d 3c 23 d3 b3 3c d0 90 3c 3c 7f 12 d8 3c
       0.019197315 0.021951264 0.011509135 0.026376007
000050 6c 30 c1 3c e2 2e ad 3c 11 58 9a 3c c9 4d c3 3c
       0.02358266 0.02114052 0.018840821 0.023840802
000060 63 86 6a 3c 0e a3 a6 3c 38 e3 12 3d 65 e7 d0 3c
       0.014314267 0.020341422 0.035861224 0.025500963
000070 8b e7 c7 3c b1 14 db 3c 8a 5d 08 3d 68 3f a5 3c
       0.0244024 0.026743265 0.03329233 0.020171836
000080 a5 42 8b 3d a4 b2 32 3d dd 43 83 3d ca 9d 83 3d
       0.06799821 0.043627396 0.06409428 0.0642658
000090 56 aa 67 3d 02 5b 2c 3d 26 f9 36 3d af eb 82 3d
       0.05655893 0.04207898 0.0446712 0.06392609
0000a0 8e 2c ae 3d f9 23 8c 3d 13 c5 69 3d 1c 8b 7a 3d
       0.08504592 0.06842799 0.05707271 0.06116782
0000b0 52 97 75 3d 11 53 7d 3d 02 33 7d 3d 08 fa cd 3d
       0.059958763 0.061846796 0.061816223 0.10057455
0000c0 bf ef 82 3d 50 3f 7e 3d 84 8c 73 3d cb 60 63 3d
       0.06393384 0.0620721 0.059460178 0.05551223
0000d0 d0 bb 4d 3d 68 2f 2e 3d 01 6d b2 3d 3c 67 6c 3d
       0.05022794 0.04252568 0.08712197 0.05771564
0000e0 34 41 5d 3d fc 9f 9d 3d 99 cb 12 3d 26 a4 a3 3d
       0.05401726 0.0769653 0.035838697 0.07990293
0000f0 99 54 a8 3d 23 b9 9f 3d 78 f0 b6 3d 09 1a 40 3d
       0.08219261 0.07798984 0.089325845 0.04689983
000100 76 9e 31 3e 94 4f 22 3e 44 db f3 3d f2 03 f9 3d
       0.17345604 0.15850669 0.11907056 0.12158956
000110 e1 20 22 3e c0 30 0b 3e 32 3d 27 3e 8a 6e dc 3d
       0.15832855 0.13592815 0.16331938 0.10763271
000120 f9 de 3c 3e 30 cb 1e 3e cf d5 14 3e 5d 54 f1 3d
       0.18444432 0.15507197 0.14534687 0.11783669
000130 aa c2 0d 3e 66 9d 17 3e 43 c8 11 3e 12 f5 17 3e
       0.1384379 0.14806136 0.1423655 0.1483958
000140 db a9 7c 3e b8 f9 3f 3e 73 a8 fa 3d 2e 94 e0 3d
       0.2467417 0.18747604 0.122391604 0.10965763
000150 ea 17 3f 3e be 56 4d 3e 4f 4b 4c 3e 08 55 29 3e
       0.18661466 0.20052621 0.19950603 0.16536343
000160 d6 16 52 3e d3 4f 37 3e 68 84 30 3e 43 9f fc 3d
       0.20516524 0.17901544 0.17238009 0.12335064
000170 fc 58 41 3e 87 7b 1d 3e 8c 45 04 3e 90 ac e6 3d
       0.18881601 0.15379153 0.12917155 0.112633824

module.layer1.se.fc.0.weight f4 [12, 96]
000000 4c 7a b1 bd a4 5a 3a bf 40 a2 53 3e 86 ff 00 bf
       -0.086659044 -0.72794557 0.20667362 -0.503899
000010 95 8b 85 3c 39 61 e1 bd 6b 46 91 be 06 f3 2a 3f
       0.01630191 -0.11004872 -0.28374037 0.66777074
000020 ef ba 03 bd f5 70 a3 3d f1 3d 95 3e 7f b1 d4 bc
       -0.032160696 0.07980529 0.2914882 -0.025963543
000030 de da d3 bd 8e 3a 02 bd 8f e1 1c 3d 8d 00 35 be
       -0.1034448 -0.031794123 0.038301047 -0.17675991
000040 93 db 16 bc 56 8c c5 be 63 f6 f6 3d 50 5a 19 be
       -0.009207624 -0.3858363 0.12058713 -0.14975858
000050 89 d5 42 bd 81 9d 7b be 10 d6 75 bd bb a7 29 be
       -0.047566924 -0.24571802 -0.0600186 -0.1656789
000060 88 4f 80 3e df c5 5d 3e db 2c 0a bd d6 e2 46 be
       0.25060678 0.21657513 -0.033734184 -0.19422469
000070 bc de 79 be f2 b6 04 bf 3d 97 0a bf b1 1c 18 be
       -0.24401373 -0.5184165 -0.5413702 -0.14854695
000080 27 e6 7c 3e 9b cb 27 3d 83 40 b2 be 1f 65 66 3d
       0.24697171 0.040965658 -0.34814844 0.05624878
000090 f3 40 4e be 16 6a 62 be 8c bf bf be b7 36 dc be
       -0.20141964 -0.22110781 -0.37450826 -0.43010494
0000a0 78 d3 0a bf 4d 7c 1c be 9c 55 fc 3e 26 da 8a bd
       -0.54228926 -0.15281792 0.49284065 -0.0677989
0000b0 e5 40 ae 3e bb bc a2 3d 52 9c a1 3e b7 d3 10 bf
       0.34033886 0.07946154 0.31564575 -0.5657305
0000c0 23 79 e7 3d 0e 5c 31 3f 8b e1 03 bb 29 b1 f0 be
       0.11302402 0.6928109 -0.0020123448 -0.47010162
0000d0 99 9a 39 be 4e ed 00 be a5 82 41 bf ab 05 93 3c
       -0.1812538 -0.12590525 -0.7558997 0.017947039
0000e0 22 47 a4 3e 5b c4 ae 3d 17 95 a7 be 99 3f 9d bd
       0.3208552 0.085335456 -0.32730934 -0.07678146
0000f0 50 3e 3f 3f fe 1a 9a be f6 84 11 3f 06 b2 5c 3d
       0.74704456 -0.30098718 0.5684351 0.053880714
000100 65 cd 76 3e 36 98 a8 3c 27 53 a0 3d e4 e5 80 bc
       0.2410179 0.020580392 0.0782836 -0.01573462
000110 4a 92 3c 3e 36 db ad 3c 3a de be 3c 5a 1e 85 bd
       0.1841518 0.021222692 0.023299325 -0.0649993
000120 9a 37 4a 3f 19 e5 2d bc e7 c6 97 3e 6b e9 d6 3d
       0.7899109 -0.010613703 0.29643938 0.1049374
000130 2b bb 9a bd 61 24 09 3e a6 ff 37 3c 1a d7 6e bc
       -0.07555231 0.13392784 0.011230385 -0.014577651
000140 d0 5a 98 be 5c dd 0c be 82 aa 38 bd 69 d9 f3 bc
       -0.29756784 -0.13756317 -0.045084484 -0.029766755
000150 e7 dd 1e be 72 17 fe 3e 40 b5 89 bd 66 7b 9c bd
       -0.15514337 0.49627262 -0.06724024 -0.07640724
000160 a5 c3 80 bc fd 6f cb bd 7f 58 e4 bd 13 7a 42 3d
       -0.01571829 -0.099334694 -0.11149692 0.0474797
000170 ae f6 01 3c 91 f8 5d bd 1a 79 16 3f 36 7a 9e bd
       0.007932348 -0.05419213 0.58778536 -0.07738154
000180 1a 7d 09 bc 6b 5c 18 bd 0f 77 4d b9 bb dd 6c 3d
       -0.008391643 -0.03719751 -0.00019594676 0.057828646
000190 0a b2 1c 3d e5 8e e9 3c 37 9a a1 bc b6 03 0e be
       0.03825573 0.02851052 -0.019726856 -0.13868603
0001a0 f4 95 ae bc 26 95 8e bd 3d c2 89 bd 0a 2d b7 bc
       -0.021311738 -0.069620416 -0.06726501 -0.022360343
0001b0 bd 01 38 bd a1 96 97 bc 5f fc 80 3d 17 0f cf 3d
       -0.044923533 -0.018504443 0.06298136 0.101103
0001c0 a0 ef de bc 6c 53 bf 3d 6e 66 7c 3d 02 f8 4f bd
       -0.027213871 0.09342083 0.061621122 -0.050773628
0001d0 52 f9 e2 bc 2f b1 9e 3d 21 bc fd 3c 54 d1 bc 3c
       -0.027706776 0.07748639 0.030973496 0.023049034
0001e0 41 5f 10 3c 11 91 cf bc 82 bd f6 bc f0 f1 d6 bb
       0.008811773 -0.025337728 -0.030119661 -0.006559603
0001f0 c9 9b 9e bd 21 b4 ec bb be 1c 0e 3e 62 3f 8d bc
       -0.077445574 -0.0072236215 0.13878152 -0.017242137
000200 26 ce 51 3d 67 16 ea 3d 6f be 3f 3d 81 7d 0d 3c
       0.05122199 0.11430054 0.04681247 0.0086358795
000210 a3 33 93 3c 5c f0 f3 3c 9b 6a da 3d b6 0f 8e 3d
       0.017968958 0.029777698 0.10664865 0.069365904
000220 ef 45 10 3e d1 04 5e 3d 57 0b 44 bd 80 66 cd bb
       0.14089178 0.054203812 -0.047862377 -0.0062683225
000230 65 47 86 bd 51 f6 b5 bb 3d f0 42 bb 09 ba 85 3d
       -0.06556586 -0.005553045 -0.0029745244 0.06529624
000240 92 c8 fe 3c 75 2e c0 3c 4f 7b 11 3d dc 6e f2 3c
       0.031101499 0.023459652 0.035517987 0.029593877
000250 c9 09 9a 3d cf 3b 1a bc f5 93 64 3b c1 da 80 bd
       0.075213976 -0.009413674 0.0034878228 -0.06291724
000260 6a 56 54 ba bd c4 09 3d 59 dc 41 3e 0d f8 e0 3c
       -0.0008100035 0.03363489 0.18931712 0.02746203
000270 3e 47 99 3d 5c 6d c2 3d d8 17 13 be 1b 86 8b bc
       0.074842915 0.09493515 -0.14364564 -0.01703172
000280 3e 36 a8 bd eb 29 d5 3c 55 c2 16 3b ae 88 c9 3b
       -0.08213471 0.026020965 0.0023004015 0.0061503267
000290 8a 07 0f 3e 66 74 03 bd 78 f2 a0 3d 4e cd 27 be
       0.1396772 -0.032093428 0.07858747 -0.16386911
0002a0 b4 12 81 3e c4 38 56 bd 51 8f 1b 3e a5 6c de 3d
       0.25209582 -0.05230023 0.1519139 0.10860566
0002b0 8e 1d 50 3e 30 dd 92 bd c8 5d 61 3c b7 ef c1 3e
       0.20323774 -0.071710944 0.013755269 0.378782
0002c0 c7 56 9c bd e1 96 8f 3c 1d 4b 1d be 9d 7c 5c 3c
       -0.07633739 0.017528 -0.15360685 0.0134574445
0002d0 53 49 0e 3d 04 dd 1e 3d 8d 8b 4b bd 13 d7 b7 be
       0.034737896 0.038784996 -0.049693633 -0.35906276
0002e0 1a 2f cd bc 56 f1 83 bd fb 11 05 3e 3e 1f 2b bd
       -0.025046874 -0.064425156 0.1299514 -0.04177784
0002f0 0b 56 ea bb d7 25 ec 3a 74 f9 63 be 14 ef f1 3d
       -0.0071513704 0.0018016648 -0.22263128 0.11813179
000300 5a 81 fa bb 96 7c 40 3c 43 81 16 3b 93 fb bf 3a
       -0.0076448144 0.011748454 0.002296523 0.0014647119
000310 f9 31 c2 bb 61 6f 25 3b e2 94 16 bc 65 a7 52 3b
       -0.0059263674 0.002524339 -0.00919077 0.0032143232
000320 90 e9 8f 3c a3 05 83 3c 0d 80 90 bc ce 26 26 3c
       0.017567426 0.015993899 -0.017639184 0.010141088
000330 ac e5 87 bc 6f d4 10 3c 4b e8 a4 3c b9 60 9c ba
       -0.016589008 0.008839711 0.020130297 -0.0011930681
000340 ab 29 9f 3a a1 ff 9d ba 04 50 16 3c eb 5b 8c bc
       0.0012143155 -0.0012054333 0.009174351 -0.017133674
000350 5b 3d 12 3b 6d c4 12 bc b9 95 7f 3c a5 33 56 3c
       0.0022314403 -0.008957964 0.0155996615 0.013073836
000360 9c 91 13 3c 0c 95 af bb 17 82 2d bc 40 f2 ea bb
       0.009006884 -0.005358344 -0.010590098 -0.0071699917
000370 20 f0 4c 3c f2 bd af 3b 24 70 b6 bb ff 9f 33 bb
       0.012508422 0.0053632194 -0.0055675674 -0.0027408598
000380 25 c9 e7 bb b7 c6 77 3c 73 c9 fa 3b c9 89 a9 bb
       -0.007073539 0.015123061 0.007653409 -0.005173896
000390 d5 3f 8c 3a 03 ae 54 bb 98 de fe 3b eb 59 dd 3b
       0.0010700176 -0.0032452352 0.007778 0.006755104
0003a0 26 7e 26 ba 79 39 13 bc 79 c4 a8 3c c5 04 8c bc
       -0.0006351195 -0.0089858705 0.020601498 -0.017092118
0003b0 d8 1c 52 3b 57 3b cf 3c ce be b3 3c f3 85 68 3c
       0.003206065 0.02529685 0.021941569 0.014192092
0003c0 d7 00 ff bc 9b 6d 41 3c ae ff d2 3c f1 4b 61 3b
       -0.03112833 0.011805917 0.025756683 0.003437754
0003d0 59 cb 17 bb 6e 6b cb 3c 2f 1e 89 bc bc 98 f7 bb
       -0.0023161976 0.0248315 -0.016738025 -0.007556049
0003e0 15 85 22 bc 97 3f 4d bc 90 75 fa bb 6b df 0a bc
       -0.009919425 -0.012527368 -0.007643409 -0.008476119
0003f0 68 eb 6e ba d5 8e 32 3c b8 3a 95 bb 14 bf 0b 3c
       -0.0009114058 0.010898312 -0.004554119 0.008529443
